lesson-28/checkpoint_4_epoch.pkl (torch_old, 493632 bytes, 20 tensors)

conv1.weight f4 [6, 3, 5, 5]
-0.03635863 0.0463276 0.11769893 -0.14711085 -0.07068604 -0.05321858 -0.08655061 -0.15364955
0.019817986 0.03617398 0.05483812 0.02965996 0.21252306 -0.06180566 0.090926714 0.039711237
0.17832959 0.08729162 -0.012906844 -0.14531212 0.07351077 -0.19478308 0.08418711 0.0002564317
-0.08340891 -0.063464925 -0.1222891 0.07172706 -0.06283171 0.04564078 0.04469197 -0.0979558
0.14980179 -0.20595928 -0.027030695 -0.058528826 -0.022487085 -0.105817124 -0.1591532 -0.041779876
-0.064311706 0.0582981 -0.03123993 0.0015368923 0.007670823 -0.056180485 -0.0340611 -0.049863398
0.03949815 0.034592934 0.040655553 0.09937 -0.13419817 -0.10975682 -0.09923119 0.12766904
-0.10817939 -0.10884682 -0.2542397 -0.15307347 -0.109522186 0.03558484 -0.16651113 -0.0011083466
0.16511416 -0.10057798 -0.06098112 -0.07041012 0.052007835 -0.016215071 0.0036838618 0.09769977
-0.008189337 0.12117599 -0.08434422 -0.0849451 0.016295949 -0.034557264 0.04507138 -0.10806762
-0.22709377 0.15120485 -0.04971299 0.040283877 0.06660561 -0.023695402 -0.12591703 -0.05004688
0.030399695 -0.038599215 -0.08269309 -0.091963574 -0.07000654 0.037670672 -0.023956824 0.098978624
0.0030528728 -0.1986639 0.035343625 -0.10703341 0.007394652 -0.12062325 -0.13009419 -0.17032795
-0.049491763 -0.01861442 0.02664057 -0.14083841 -0.14921434 -0.00062926696 -0.02772996 0.019464277
-0.051964704 -0.0010857371 -0.097616844 -0.072726436 -0.1672933 -0.10036333 -0.21287717 -0.0026136877
0.03421888 -0.08725018 -0.037921704 0.02802424 -0.07957344 -0.13704208 -0.09727178 -0.029834537
-0.17825432 -0.095060416 -0.21421848 -0.023541933 -0.16182148 0.0071080686 -0.1468688 -0.1242124
-0.11407234 -0.074510075 -0.12377176 -0.012133784 -0.0077257706 -0.038700055 -0.065737315 -0.016883502
0.097423114 -0.060830526 -0.10384959 -0.023068745 -0.0522076 -0.08560353 0.045972727 -0.047591757
-0.058215365 0.11522918 0.17834826 0.040230572 -0.14071585 -0.030846281 -0.017366357 0.18983378
-0.12734443 0.021349978 0.19839348 -0.122505955 0.06772418 0.13222939 0.12174928 -0.307253
0.06351887 -0.06237881 -0.06368243 0.028944874 0.0034407151 -0.109210916 -0.036636993 0.017090008
0.12182669 0.13395923 0.0468702 0.04485034 0.21438104 -0.057551872 -0.12510179 -0.008426376
-0.0034306592 -0.014572259 0.04688023 0.09577826 -0.20611128 -0.16356322 -0.012880258 -0.07526679
-0.07935707 -0.15879866 -0.010222151 -0.05257146 -0.07836279 -0.10563119 0.03601623 0.061656952
-0.026173308 0.07715933 0.13747312 0.07894187 0.06664979 0.021484934 0.15197097 0.028794685
0.049067024 -0.024147322 0.12347608 0.028024878 -0.07591401 -0.0044568093 -0.043588508 -0.11161353
0.07148098 -0.064795926 0.01694245 -0.053019036 0.0902753 0.0103269145 -0.0070875 -0.08673345
-0.03551424 0.04537142 -0.06298216 -0.03616862 0.054669593 0.05527801 0.03729472 0.07810756
-0.02751202 0.09993302 -0.0069999206 -0.049147263 0.13568184 -0.033276383 0.1184207 0.07023831
0.104315914 0.0049699717 -0.06433253 -0.022377823 0.016655272 -0.100278646 -0.012366281 0.083346486
0.0835965 0.0059203603 0.0026317 0.055747755 0.24403524 -0.011641651 0.03575906 -0.15092626
00000000: c9ec 14bd 02c2 3d3d 230c f13d 3aa4 16be
00000010: d8c3 90bd bafb 59bd 7241 b1bd 4f56 1dbe
00000020: 5459 a23c 2b2b 143d f09d 603d 72f9 f23c
00000030: a59f 593e ef27 7dbd c937 ba3d 40a8 223d
00000040: 089c 363e f3c5 b23d 3a77 53bc b3cc 14be
00000050: d18c 963d 3775 47be 4b6a ac3d ae71 8639
00000060: 4ad2 aabd e6f9 81bd b572 fabd a3e5 923d
00000070: e9ad 80bd d4f1 3a3d ed0e 373d 0d9d c8bd
00000080: a465 193e fde6 52be 7a6f ddbc ecbb 6fbd
00000090: d636 b8bc a6b6 d8bd 0ef9 22be 6021 2bbd
000000a0: dbb5 83bd fdc9 6e3d e2ea ffbc 8c71 c93a
000000b0: 875b fb3b 821d 66bd a783 0bbd 903d 4cbd
000000c0: d0c8 213d 52b1 0d3d 7086 263d 8082 cb3d
000000d0: 3f6b 09be 2fc8 e0bd b939 cbbd acbb 023e
000000e0: 288d ddbd 15eb debd b52b 82be 4bbf 1cbe
000000f0: 2b4d e0bd 69c1 113d e581 2abe f145 91ba
00000100: b013 293e d4fb cdbd 57c7 79bd 2e33 90bd
00000110: 2b06 553d 78d5 84bc f26c 713b d116 c83d
00000120: 922c 06bc 1e2b f83d aabc acbd b2f7 adbd
00000130: 157f 853c eb8b 0dbd c49c 383d 8e52 ddbd
00000140: 458b 68be 72d5 1a3e d99f 4bbd b500 253d
00000150: 8668 883d dc1c c2bc 65f0 00be f5fd 4cbd
00000160: c808 f93c 361a 1ebd ff5a a9bd 6657 bcbd
00000170: 975f 8fbd 904c 1a3d 1a41 c4bc 4eb5 ca3d
00000180: b512 483b 8d6e 4bbe 7ac4 103d 5534 dbbd
00000190: d64e f23b 5309 f7bd 6937 05be 736a 2ebe
000001a0: e0b7 4abd 457d 98bc 533d da3c f237 10be
000001b0: a5cb 18be 64f5 24ba f129 e3bc 8c73 9f3c
000001c0: f1d8 54bd 4b4f 8eba 57eb c7bd 99f1 94bd
000001d0: ef4e 2bbe 4a8b cdbd 79fc 59be 674a 2bbb
000001e0: 1929 0c3d 39b0 b2bd ca53 1bbd 1793 e53c
000001f0: 66f7 a2bd c254 0cbe 6d36 c7bd 8f67 f4bc
00000200: 4d88 36be 09af c2bd 175c 5bbe 03db c0bc
00000210: 88b4 25be cdea e83b c664 16be 1263 febd
00000220: c29e e9bd bd98 98bd 0c7c fdbd c7cc 46bc
00000230: 7628 fdbb f383 1ebd 49a1 86bd 454f 8abc
00000240: c585 c73d 6e29 79bd 18af d4bd aafa bcbc
00000250: a3d7 55bd e750 afbd e64d 3c3d 93ef 42bd
00000260: 3c73 6ebd 47fd eb3d eda0 363e d0c8 243d
00000270: d117 10be 57b1 fcbc e443 8ebc c963 423e
00000280: 9466 02be 26e6 ae3c a927 4b3e 67e4 fabd
00000290: fab2 8a3d 2467 073e b057 f93d 4450 9dbe
000002a0: 2e16 823d ec80 7fbd ef6b 82bd cd1d ed3c
000002b0: 9f7d 613b f9a9 dfbd ac10 16bd 5800 8c3c
000002c0: 4680 f93d 9c2c 093e f8fa 3f3d fdb4 373d
000002d0: b486 5b3e 83bb 6bbd af1a 00be c80e 0abc
000002e0: e9d4 60bb 7cc0 6ebc 7c05 403d 6427 c43d
000002f0: d60e 53be 1e7d 27be b807 53bc 7a25 9abd
00000300: f685 a2bd 1e9c 22be cf7a 27bc 2c55 57bd
00000310: ac7c a0bd 2a55 d8bd c185 133d 008c 7c3d
00000320: 6869 d6bc b605 9e3d c1c5 0c3e 46ac a13d
00000330: af7f 883d 2c01 b03c 479e 1b3e d5e2 eb3c
00000340: 81fa 483d 9bd0 c5bc 07e1 fc3d 6e94 e53c
00000350: ce78 9bbd 6d0a 92bb dd89 32bd a295 e4bd
00000360: 9f64 923d bab3 84bd e5ca 8a3c 7d2a 59bd
00000370: 42e2 b83d 3832 293c 423e e8bb 4fa1 b1bd
00000380: 6177 11bd 62d7 393d cafc 80bd 8c25 14bd
00000390: 39ed 5f3d 326b 623d 59c2 183d dbf6 9f3d
000003a0: e360 e1bc afa9 cc3d 975f e5bb a44e 49bd
000003b0: 2ef0 0a3e d14c 08bd 8d86 f23d 1ad9 8f3d
000003c0: 95a3 d53d 25db a23b c6c0 83bd b251 b7bc
000003d0: a370 883c e45e cdbd f19b 4abc 90b1 aa3d
000003e0: a434 ab3d 95ff c13b 9978 2c3b c257 643d
000003f0: 60e4 793e a0bc 3ebc 1878 123d 6a8c 1abe

conv1.bias f4 [6]
0.039365176 -0.031193223 -0.016117046 0.016691674 -0.031881075 -0.02336577
00000000: 613d 213d ee88 ffbc e507 84bc fabc 883c
00000010: bb95 02bd 9269 bfbc

conv2.weight f4 [16, 6, 5, 5]
-0.021335958 0.11273774 -0.09191824 -0.039189298 0.06302754 0.07401592 0.053688165 -0.015499836
-0.0213604 0.010824569 -0.10499023 -0.02341806 0.08849392 -0.011210793 0.015370226 0.053438112
0.04212207 -0.07163969 -0.08992495 -0.035531104 -0.08159944 -0.05637345 -0.02009862 -0.018586673
0.035610642 -0.08063765 0.03670301 -0.1484351 -0.033605117 -0.0627337 0.11568834 -0.14804688
-0.014637977 -0.059597634 -0.058180645 -0.118521884 -0.06224983 -0.14698519 0.051531054 -0.032167997
0.017555391 0.10323885 0.05324056 0.056854192 -0.062001742 -0.077310964 -0.028980456 -0.028282594
0.03974473 -0.044626713 0.005766377 -0.16187303 -0.04232719 -0.04563218 -0.042130433 0.016639896
0.11358821 0.11610152 0.01620837 0.05551519 -0.053074982 0.0024134906 -0.06361104 0.030348092
-0.015939027 -0.024053255 -0.11938274 -0.007603258 0.020099506 0.018799154 -0.05133227 0.047805782
0.10722174 -0.0018722296 0.00043011567 -0.14291547 0.0053267833 -0.051331267 0.07362121 -0.066619016
-0.009979623 -0.051664926 -0.07609757 0.04716089 -0.013147569 0.06985978 0.012471075 -0.053428516
0.120475054 -0.0624599 -0.086949825 0.010724443 -0.044357732 -0.16310291 0.01199451 0.003194097
0.021832641 -0.0045251404 0.054951258 0.14168185 -0.0028680232 -0.014764131 0.03153838 0.020945162
-0.074127525 -0.075590864 0.103062905 -0.102380246 0.033070024 -0.0067259446 -0.0065274592 0.053059082
-0.07464697 0.0846788 -0.01299857 -0.017793199 0.036108904 0.022147544 0.028267281 -0.036101084
-0.027812803 0.057946917 0.085287064 -0.06794625 -0.07089299 0.025663475 -0.08988004 0.069142684
-0.04257063 0.01609144 0.022391444 -0.031218365 -0.076558135 0.11599478 -0.07829496 0.028372625
0.019698745 -0.02008674 -0.02973349 0.025199534 0.037097257 -0.005290804 0.00013750586 -0.012440406
0.064878516 -0.026297564 -0.057705473 -0.038179792 0.015555448 0.080843985 -0.0035479087 0.015455572
-0.09565312 -0.09430492 -0.002815874 -0.0784021 -0.03626768 0.008513845 -0.019006941 -0.021472204
-0.03183517 0.003178876 0.06582255 -0.03910683 -0.00792921 -0.11572792 0.039300367 -0.06881071
-0.044121627 -0.021344397 -0.02252239 -0.02093856 -0.035354987 -0.024734434 -0.027981227 -0.102182224
-0.11590775 -0.12678099 0.026163528 -0.018977018 -0.10909372 -0.07667456 -0.009889852 -0.049136173
-0.06385666 -0.09324509 -0.053717807 -0.044955567 0.03738088 0.0069657243 -0.13032226 0.007945512
0.004133682 0.023743344 -0.095174946 -0.12338634 -0.037334852 0.007865704 0.023102446 -0.017626284
-0.022416776 -0.033619028 0.025780099 -0.011861275 0.0132401 0.06877649 0.06484134 -0.049753223
-0.011107196 -0.03387 -0.118966825 -0.06597476 0.008200736 -0.065161094 -0.10724267 -0.03378929
0.09124565 -0.06382716 -0.0075290296 0.02372333 0.0042454437 -0.051578674 0.106182784 0.026226616
-0.11914428 0.14464955 -0.041377384 -0.019960217 -0.045667484 -0.028660296 0.013562346 0.06464794
-0.109067716 0.043723162 0.09187198 0.05069186 0.030868692 0.09400975 -0.07704441 -0.088611476
-0.008266958 -0.11699247 -0.017621903 0.0465212 -0.074188925 0.11417905 0.029070983 0.011694174
-0.006710406 -0.04713273 -0.12978405 0.0034375682 0.06711699 0.00745733 -0.021799438 -0.008269607
00000000: bfc8 aebc 0be3 e63d a13f bcbd f584 20bd
00000010: 9514 813d a995 973d 1fe8 5b3d 06f3 7dbc
00000020: 01fc aebc 8859 313c 1e05 d7bd 3bd7 bfbc
00000030: 4d3c b53d 79ad 37bc 67d3 7b3c ece1 5a3d
00000040: 3188 2c3d d4b7 92bd 922a b8bd 1089 11bd
00000050: 9b1d a7bd d9e7 66bd dca5 a4bc 1443 98bc
00000060: 77dc 113d 5a25 a5bd e555 163d 5fff 17be
00000070: 85a5 09bd 877a 80bd 02ee ec3d 9a99 17be
00000080: 20d4 6fbc a61c 74bd d44e 6ebd 9abb f2bd
00000090: aef9 7ebd 4983 16be 3a12 533d 97c2 03bd
000000a0: 53d0 8f3c e46e d33d c612 5a3d f1df 683d
000000b0: 8af5 7dbd 3655 9ebd 6c68 edbc e6b0 e7bc
000000c0: 5fcb 223d 80ca 36bd e0f3 bc3b 0bc2 25be
000000d0: 475f 2dbd cfe8 3abd f690 2cbd 6450 883c
000000e0: efa0 e83d a2c6 ed3d 6ac7 843c e563 633d
000000f0: 2765 59bd a72b 1e3b 8146 82bd 909c f83c
00000100: 9092 82bc 550b c5bc f07e f4bd c024 f9bb
00000110: b8a7 a43c af00 9a3c c941 52bd ffcf 433d
00000120: 1297 db3d 9a65 f5ba 2681 e139 6f58 12be
00000130: 4c8c ae3b bc40 52bd b8c6 963d 8d6f 88bd
00000140: 9381 23bc 9a9e 53bd 0bd9 9bbd c72b 413d
00000150: e768 57bc a512 8f3d 7b53 4c3c dcd7 5abd
00000160: a0bb f63d f4d5 7fbd c012 b2bd 93b5 2f3c
00000170: 74b0 35bd 7304 27be 9f84 443c 0e54 513b
00000180: 5eda b23c a147 94bb 9214 613d 0c15 113e
00000190: 72f5 3bbb 41e5 71bc 632e 013d 3095 ab3c
000001a0: 2cd0 97bd 62cf 9abd a512 d33d bcac d1bd
000001b0: 6f74 073d 5065 dcbb 4ce4 d5bb 7b54 593d
000001c0: 83e0 98bd 146c ad3d f4f7 54bc 0bc3 91bc
000001d0: eee6 133d c46e b53c c990 e73c bbde 13bd
000001e0: add7 e3bc bf59 6d3d fcaa ae3d 6727 8bbd
000001f0: 5830 91bd 353c d23c 0713 b8bd ae9a 8d3d
00000200: 8a5e 2ebd 32d2 833c 436e b73c a8bd ffbc
00000210: 83ca 9cbd ac8e ed3d 1c59 a0bd b56d e83c
00000220: 435f a13c f28c a4bc a693 f3bc 416f ce3c
00000230: 4bf3 173d 7b5e adbb 732f 1039 d8d2 4bbc
00000240: 07df 843d fd6d d7bc 935c 6cbd 6a62 1cbd
00000250: 47dc 7e3c 8891 a53d 0884 68bb 5e39 7d3c
00000260: c8e5 c3bd f022 c1bd 878a 38bb 4891 a0bd
00000270: 6b8d 14bd a77d 0b3c 72b4 9bbc 7ae6 afbc
00000280: 9865 02bd b054 503b f9cd 863d 7c2e 20bd
00000290: 84e9 01bc c202 edbd 6cf9 203d a1ec 8cbd
000002a0: e1b8 34bd 72da aebc e080 b8bc 5887 abbc
000002b0: 64d0 10bd de9f cabc e338 e5bc ea44 d1bd
000002c0: 0b61 edbd e0d2 01be e554 d63c b175 9bbc
000002d0: 876c dfbd 8d07 9dbd 0c09 22bc 0343 49bd
000002e0: 48c7 82bd 48f7 bebd 3407 5cbd 5423 38bd
000002f0: b21c 193d bb40 e43b 3373 05be e52d 023c
00000300: d773 873b 6781 c23c 15eb c2bd fab1 fcbd
00000310: 6eec 18bd 27df 003c 5741 bd3c ff64 90bc
00000320: 63a3 b7bc 1bb4 09bd c930 d33c cb55 42bc
00000330: 01ed 583c b0da 8c3d 89cb 843d 09ca 4bbd
00000340: f5fa 35bc 45bb 0abd e1a4 f3bd c61d 87bd
00000350: 615c 063c 2e73 85bd 0ca2 dbbd a366 0abd
00000360: 00df ba3d d0b7 82bd 14b6 f6bb 6e57 c23c
00000370: 5d1d 8b3b 2944 53bd 5c76 d93d 33d9 d63c
00000380: eb01 f4bd 031f 143e 557b 29bd 9c83 a3bc
00000390: d40d 3bbd ffc8 eabc 9a34 5e3c 2466 843d
000003a0: e55e dfbd 0f17 333d 6027 bc3d 45a2 4f3d
000003b0: 57e0 fc3c 2f88 c03d 76c9 9dbd ef79 b5bd
000003c0: 2372 07bc c099 efbd cf5b 90bc 048d 3e3d
000003d0: 5df0 97bd b5d6 e93d 4526 ee3c ec98 3f3c
000003e0: f7e2 dbbb 400e 41bd 1ce6 04be d348 613b
000003f0: a274 893d 9e5c f43b bc94 b2bc 3f7d 07bc

conv2.bias f4 [16]
0.010743582 -0.048800927 -0.028559096 -0.009610995 0.021776233 0.020246122 -0.0071120714 -0.02812295
-0.01093339 -0.012259363 -0.016851177 -0.05962154 -0.0067084907 -0.01824076 -0.034914345 -0.022272918
00000000: d905 303c 7be3 47bd c4f4 e9bc 6f77 1dbc
00000010: 1264 b23c 32db a53c 610c e9bb 1a62 e6bc
00000020: f621 33bc 7fdb 48bc 7b0b 8abc b735 74bd
00000030: e6d2 dbbb a56d 95bc 5802 0fbd b275 b6bc

fc1.weight f4 [120, 400]
0.055492796 -0.0018954816 -0.0017279382 -0.13014449 -0.01866558 -0.21647495 -0.0111048175 -0.045261484
-0.11539926 -0.09488633 -0.12680426 -0.011821827 0.09192233 0.03151405 -0.1342988 -0.022930387
0.06407509 -0.06786413 0.02784848 0.066886 0.18071398 -0.11158977 0.0028724046 -0.20295033
0.19234532 -0.031996757 0.19172306 0.02300492 -0.045144193 -0.06678607 -0.12816346 0.063003995
0.11833465 -0.00047018964 -0.14545774 0.04461186 -0.051072493 0.18559428 0.012504406 0.00086299906
0.13008177 0.051156953 -0.06831505 0.12576546 0.039041687 -0.08295707 0.0398576 0.07845633
-0.032103475 0.18068928 0.040569283 -0.010503312 0.05291857 -0.032619353 0.081775315 -0.05387504
0.048939023 0.0079620695 -0.013196257 0.0393161 -0.0068261204 0.21890908 -0.028786933 0.10602582
-0.11482295 0.16767459 -0.09112632 0.019502833 0.086565904 -0.008113213 0.026556496 -0.068268016
-0.055925544 0.050714277 -0.12896176 -0.020160247 0.12915622 -0.064948425 -0.16475016 0.078385144
-0.009344381 0.15987317 -0.06134401 -0.11981287 0.0013671985 0.012935755 -0.16217346 -0.10220426
-0.13097496 -0.13021106 0.024407633 0.046971064 -0.05217201 -0.021807538 0.03226877 -0.0060042385
0.052787073 0.09249749 -0.01431258 -0.091209024 0.0902577 -0.07550776 0.04563278 0.054836385
-0.09816141 -0.20735385 0.15816343 -0.021044813 -0.028945945 -0.004042983 -0.06675406 -0.06238498
0.032849055 -0.054815494 -0.05723248 0.061466943 0.23327808 -0.015438229 0.21959192 0.016171278
0.030487606 0.057461217 -0.0323179 0.12119388 -0.021205032 0.17373382 0.029327197 -0.024340224
-0.10786438 -0.124485835 0.15063676 -0.09009168 -0.2582491 -0.08867626 0.19205138 0.014168805
-0.02826631 -0.14287668 0.13716738 0.011366332 -0.12722503 0.07532617 0.10432002 0.1246526
-0.20171145 -0.011845904 0.038185764 0.14116344 0.06437203 0.0009737779 0.2558922 -0.03641939
-0.092132114 0.13116653 0.11005716 0.12076309 -0.021468675 0.1359409 0.040627345 0.06186564
0.023485877 0.0845358 0.09261974 -0.09554261 0.061294537 0.154253 -0.118261 0.08003099
-0.11030837 -0.069295324 -0.024351308 -0.080417715 0.009480063 -0.013505475 0.041910373 -0.055593718
-0.07012193 0.15935664 -0.030714914 0.08658863 0.049853705 0.04832009 -0.028640468 -0.02974094
0.101057634 -0.060693312 -0.03391279 -0.006104206 0.1858126 0.12834162 -0.03285651 -0.048440695
-0.08669177 0.025110837 0.123540506 0.04250193 0.02115271 -0.07065972 -0.15884995 -0.10154038
0.033457514 -0.08034855 0.05653814 0.04201805 -0.029254392 0.07409729 0.018156447 0.09570453
-0.08616341 0.19687125 0.004397678 0.09640025 0.14137575 -0.08407473 0.026112821 -0.2371501
-0.35193095 0.08989611 0.20039608 -0.072392516 -0.06010873 -0.12342003 0.028454674 0.07766802
-0.17693086 0.0081154145 -0.07077691 -0.2303811 0.09707453 -0.07057715 -0.0747152 0.061325677
0.22152026 -0.029203352 -0.004505892 0.06730517 -0.005745742 0.030832076 -0.078297354 0.18410581
0.077653766 -0.075370274 -0.04073179 -0.015112003 0.124752365 0.14158215 0.07194906 0.09851186
0.055011008 0.035373382 0.07576421 -0.017526735 -0.10758879 0.004649858 0.04289644 -0.032566015
00000000: 6a4c 633d cf71 f8ba fc7b e2ba 9944 05be
00000010: 8fe8 98bc 9cab 5dbe fbf0 35bc 1b64 39bd
00000020: 7256 ecbd c453 c2bd fad8 01be 56b0 41bc
00000030: c641 bc3d e014 013d a085 09be 82d8 bbbc
00000040: cd39 833d 59fc 8abd 7f22 e43c 87fb 883d
00000050: 160d 393e 2d89 e4bd f43e 3c3b 36d2 4fbe
00000060: 2cf6 443e 080f 03bd 0d53 443e d074 bc3c
00000070: 1ee9 38bd 23c7 88bd 483d 03be 3d08 813d
00000080: 7059 f23d c983 f6b9 e0f2 14be edba 363d
00000090: 6431 51bd 6d0c 3e3e 48df 4c3c e33a 623a
000000a0: 2834 053e f489 513d c3e8 8bbd a9c8 003e
000000b0: 2dea 1f3d 65e5 a9bd b941 233d b6ad a03d
000000c0: ef7e 03bd 9c06 393e fa2b 263d 1516 2cbc
000000d0: 24c1 583d df9b 05bd d179 a73d 13ac 5cbd
000000e0: 4974 483d 5773 023c 1d35 58bc eb09 213d
000000f0: a6ad dfbb b429 603e 93d2 ebbc 1124 d93d
00000100: 4b28 ebbd e3b2 2b3e 70a0 babd 68c4 9f3c
00000110: 7749 b13d 48ed 04bc 028d d93c 1ad0 8bbd
00000120: 2f12 65bd c6b9 4f3d 8d0e 04be 1a27 a5bc
00000130: 8741 043e ae03 85bd 44b4 28be 6488 a03d
00000140: 2d19 19bc cbb5 233e db43 7bbd 7360 f5bd
00000150: 9233 b33a 7df0 533c cd10 26be 7850 d1bd
00000160: 4d1e 06be 0c56 05be 84f2 c73c bb64 403d
00000170: 51b2 55bd b9a5 b2bc 422c 043d 34bf c4bb
00000180: 4237 583d 536f bd3d 507f 6abc cccb babd
00000190: 07d9 b83d d0a3 9abd 70e9 3a3d 1e9c 603d
000001a0: d908 c9bd 9154 54be 98f5 213e 2c66 acbc
000001b0: 0c20 edbc 007b 84bb 5ab6 88bd 6587 7fbd
000001c0: bb8c 063d 3686 60bd 9b6c 6abd c3c4 7b3d
000001d0: 73e0 6e3e a0f0 7cbc b4dc 603e a179 843c
000001e0: 25c1 f93c 745c 6b3d c65f 04bd 7f34 f83d
000001f0: 2db6 adbc 47e7 313e 973f f03c 2665 c7bc
00000200: 00e8 dcbd 6ef2 febd 8640 1a3e fd81 b8bd
00000210: 3a39 84be e69b b5bd 1ea9 443e 4724 683c
00000220: c08e e7bc 444e 12be 9b75 0c3e da39 3a3c
00000230: 4747 02be 9b44 9a3d bca5 d53d dd49 ff3d
00000240: 728d 4ebe 5315 42bc ad68 1c3d 268d 103e
00000250: 7cd5 833d 2145 7f3a 4d04 833e 802c 15bd
00000260: c3af bcbd 8550 063e a665 e13d a452 f73d
00000270: 13df afbc 1734 0b3e dc68 263d d366 7d3d
00000280: 7465 c03c 1b21 ad3d 6baf bd3d d8ab c3bd
00000290: fb0f 7b3d 80f4 1d3e d332 f2bd 4ae7 a33d
000002a0: 5be9 e1bd b5ea 8dbd 657c c7bc 0bb2 a4bd
000002b0: 4452 1b3c 1146 5dbc 36aa 2b3d 3db6 63bd
000002c0: 169c 8fbd 632e 233e d89d fbbc 6155 b13d
000002d0: 6633 4c3d 49eb 453d 6a9f eabc 46a3 f3bc
000002e0: 4ef7 ce3d 8d99 78bd 23e8 0abd cb05 c8bb
000002f0: a945 3e3e fc6b 033e 8c94 06bd c069 46bd
00000300: 748b b1bd 3eb5 cd3c ce02 fd3d 8116 2e3d
00000310: 7348 ad3c 0bb6 90bd 90a9 22be 67f4 cfbd
00000320: bf0a 093d c88d a4bd 8994 673d 1e1b 2c3d
00000330: e8a6 efbc 52c0 973d d4bc 943c bd00 c43d
00000340: 7176 b0bd 9e98 493e 661a 903b 7f6d c53d
00000350: cec4 103e 5f2f acbd 8eea d53c 7ad7 72be
00000360: 4b30 b4be 741b b83d a134 4d3e 8742 94bd
00000370: 9234 76bd a4c3 fcbd c719 e93c 6910 9f3d
00000380: 5d2d 35be 84f6 043c 7cf3 90bd 06e9 6bbe
00000390: 03cf c63d c18a 90bd 4804 99bd a230 7b3d
000003a0: 35d6 623e de3b efbc 29a6 93bb 4bd7 893d
000003b0: c746 bcbb 8d93 fc3c 5d5a a0bd 3c86 3c3e
000003c0: f008 9f3d bb5b 9abd 61d6 26bd 5698 77bc
000003d0: 2b7e ff3d e9fa 103e 075a 933d 96c0 c93d
000003e0: 3953 613d aee3 103d 442a 9b3d 3a94 8fbc
000003f0: 8357 dcbd d65d 983b 2db4 2f3d f163 05bd

fc1.bias f4 [120]
-0.0043115197 0.00053618883 0.00017580089 0.00476507 0.0038883812 0.0064523527 -0.0041938047 -0.0034978113
0.008231323 -0.010875603 -0.0034067424 -5.552324e-05 -0.0033478856 0.008575315 -0.0036651178 0.01578013
0.00623405 -0.0019438957 0.013690564 -0.0010965379 -0.0015817224 0.0021514702 -0.004408783 -0.0014912004
0.0001809945 0.013863879 -0.0068840864 -0.0006187296 -0.000872346 -0.002183641 0.00096843886 -0.0017840307
0.0010058413 0.001243387 -0.0008252916 -0.0012404665 -0.002532213 -0.0040610996 0.00085909275 -0.0066332435
-0.009240675 0.0011493664 -0.008571034 0.001922648 -0.00450783 -0.0023757198 -0.003886027 -0.0020729299
0.0032817863 -0.0010672527 0.013126693 -0.0032378887 0.00189243 0.0051096133 0.0006247886 -0.0013879145
-0.0011099378 -0.0009801937 9.526656e-07 -0.0027861372 -0.014378246 0.012733793 9.173053e-05 0.0074242023
-0.0005546893 -0.00936064 -0.0042124926 -0.0026877772 -0.0030914405 0.0010296156 -0.004633129 -0.0005878402
-0.00022090689 0.014179183 0.00155713 -0.000387778 -0.0005395456 -0.002158658 0.001899042 0.0076659005
-0.006744998 -0.004351722 -0.006988634 3.4145538e-05 -0.005642861 0.007311574 -0.0022346147 -0.0019275133
0.013934401 0.0046499004 0.00045551822 -0.0072908592 -0.0031331484 0.00040517395 -0.008071445 -0.00035009836
0.00043661782 0.0019411203 -0.003413676 0.0043203575 0.020623887 -0.011121713 0.0050941366 0.0010918494
-0.0053406744 -0.0015654498 -0.0045521697 -0.0050143003 -0.006198228 0.00056568044 0.01079179 0.001935156
0.00032601197 0.006994429 0.00676544 -0.010629889 0.008970201 -0.007994003 0.006691698 -0.0011569875
00000000: a647 8dbb 068f 0c3a 3157 3839 4e24 9c3b
00000010: 36d4 7e3b 426e d33b 2f6c 89bb 893b 65bb
00000020: acdc 063c 962f 32bc a743 5fbb a0e1 68b8
00000030: 3368 5bbb 7a7f 0c3c 7932 70bb 5545 813c
00000040: 0047 cc3b 51ca feba 634e 603c b5b9 8fba
00000050: cc51 cfba aeff 0c3b 8d77 90bb 6274 c3ba
00000060: 57c9 3d39 5325 633c e793 e1bb 3e32 22ba
00000070: 26ae 64ba 6b1b 0fbb d5de 7d3a 23d6 e9ba
00000080: 6fd6 833a 25f9 a23a 6258 58ba 2697 a2ba
00000090: 7cf3 25bb f912 85bb bd34 613a ae5b d9bb
000000a0: 3366 17bc 56a6 963a 866d 0cbc 5d01 fc3a
000000b0: 6bb6 93bb f7b1 1bbb b7ac 7ebb fed9 07bb
000000c0: 3d13 573b 0fe3 8bba 5711 573c c232 54bb
000000d0: 6a0b f83a 8b6e a73b dac8 233a afea b5ba
000000e0: 557b 91ba d879 80ba aeba 7f35 a097 36bb
000000f0: bc92 6bbc 66a1 503c 745f c038 b946 f33b
00000100: 9268 11ba 5f5d 19bc f308 8abb 6b25 30bb
00000110: c499 4abb 2bf4 863a 81d1 97bb 4a19 1aba
00000120: 3ea3 67b9 ce4f 683c 9d18 cc3a af4e cbb9
00000130: 4b70 0dba 4678 0dbb 47e9 f83a 3c32 fb3b
00000140: 2505 ddbb e498 8ebb e900 e5bb 7e37 0f38
00000150: c0e7 b8bb ee95 ef3b 9d72 12bb 9da4 fcba
00000160: 1d4d 643c 315e 983b 9fd2 ee39 29e8 eebb
00000170: 8255 4dbb 876d d439 183e 04bc 688d b7b9
00000180: dae9 e439 306d fe3a fbb7 5fbb c991 8d3b
00000190: 6df3 a83c d837 36bc b7ec a63b 631c 8f3a
000001a0: d300 afbb c72f cdba 5e2a 95bb 004f a4bb
000001b0: 811a cbbb 2c4a 143a 0cd0 303c 0fa5 fd3a
000001c0: 96ec aa39 8631 e53b a0b0 dd3b fc28 2ebc
000001d0: c0f7 123c 47f9 02bc 0846 db3b 0fa6 97ba

fc2.weight f4 [84, 120]
-0.024353392 -0.053359322 0.04754099 0.04311297 -0.20307373 -0.17684019 0.013308169 -0.14399333
0.010602414 0.07649459 0.08347814 0.121255755 0.09222686 0.17817755 -0.0013241903 -0.17874755
0.034955002 -0.13049424 0.083542876 0.11683469 -0.026692854 0.0404779 0.012402921 0.0057409285
-0.1728918 0.013091906 0.124677874 0.048163746 0.032776747 0.10770678 -0.09677981 -0.005935067
-0.006031686 0.08105119 0.107132375 -0.042139914 -0.08027504 -0.15077218 -0.032508623 -0.18874744
-0.2856056 0.08606576 -0.164802 0.0055119283 0.13389063 0.0870995 -0.041886665 -0.10803159
0.03275378 0.08347304 -0.05115885 -0.12941134 0.015227166 0.031224264 0.16569123 -0.010391092
0.10208499 0.1252453 0.10348363 0.015045838 0.0769487 0.21980871 0.07012338 0.10608223
-0.04976789 -0.17388424 -0.02108157 -0.062364902 0.009154079 0.03384603 0.05293741 -0.032088764
-0.12511009 -0.0028386323 0.11399098 0.09402389 0.043333046 -0.06320147 0.011557565 0.1844055
0.09245457 -0.06638895 -0.02475057 -0.0020423834 -0.06928084 -0.031972848 0.20255272 -0.14020495
-0.00924596 0.03870585 0.11615353 0.021180075 -0.021872122 0.06396742 0.05957842 -0.0493689
0.08728008 0.15900275 -0.076712094 -0.0064838193 0.042283103 0.10360103 0.05294844 -0.09494071
0.2244518 -0.13814159 0.03382434 -0.004267908 0.10012337 0.088032395 0.018787768 -0.074626006
-0.08532746 -0.20558636 0.12315047 -0.019073445 -0.17510526 -0.0036289708 -0.02463071 0.14661537
-0.0031945123 -0.045378245 -0.13513587 0.013823085 0.06766856 0.16505054 -0.1336587 -0.046119384
0.0020325321 -0.03742466 0.077034004 0.033063248 -0.043248083 0.052137446 -0.04583407 0.18889068
-0.12105537 -0.04823959 0.013554651 0.017965045 0.27431974 -0.053440966 0.004825502 -0.07602197
-0.06863609 0.11398006 -0.14435309 0.1741153 -0.0017001941 0.0942739 -0.045558345 -0.15564488
-0.100705504 -0.014908273 -0.085766956 -0.067510396 -0.048118256 -0.06184135 0.21688665 0.14208408
-0.10000321 -0.03625655 -0.055073295 0.10549519 0.04410976 0.17307924 -0.12159531 0.013241265
-0.14946833 -0.07607597 -0.08464558 0.05634957 0.026534038 -0.06848985 0.06941558 -0.061096128
0.10593192 0.021872647 0.251754 -0.044649705 -0.0019905965 0.02719325 0.09681562 -0.12565091
-0.050394963 0.019266143 -0.19074892 0.22178634 -0.069946624 0.15778978 0.15093458 0.05106744
-0.09916364 -0.0051149842 0.15050937 -0.040419225 -0.104648255 0.18180607 -0.086596385 -0.057818115
0.02762147 -0.09454583 -0.0268697 0.043812435 0.073744744 0.10725172 0.14032526 -0.2807969
-0.021043262 0.04527512 -0.23851816 -0.099059515 0.10493106 0.0063685416 -0.007968207 -0.19078648
0.25288707 0.005991688 0.058830254 0.015303587 -0.078367844 0.13382752 -0.039321195 -0.017648485
-0.04539841 0.014559861 -0.008694922 0.05034451 -0.0049574235 0.07279025 -0.15144983 -0.004721308
0.07341532 -0.14565918 -0.14053006 -0.054846443 0.007598728 0.17465013 -0.06388631 -0.056379937
-0.057399187 -0.030043574 0.06977183 -0.011401432 0.17465374 0.032653578 -0.14540236 0.20820919
0.057823736 -0.10938048 -0.22349082 -0.069604404 -0.0758904 0.112810396 0.19095369 -0.13978124
00000000: c480 c7bc 4e8f 5abd 57ba 423d 3a97 303d
00000010: 8ff2 4fbe 9815 35be 820a 5a3c fd72 13be
00000020: bfb5 2d3c 32a9 9c3d 96f6 aa3d f054 f83d
00000030: 70e1 bc3d 2d74 363e 7490 adba 9909 37be
00000040: fa2c 0f3d 48a0 05be 8718 ab3d 0747 ef3d
00000050: f9aa dabc 28cc 253d 9f35 4b3c 661e bc3b
00000060: 8c0a 31be 6f7f 563c 1d57 ff3d 5947 453d
00000070: e940 063d 5f95 dc3d 7e34 c6bd f37a c2bb
00000080: 73a5 c5bb 2bfe a53d 3868 db3d e79a 2cbd
00000090: 3d67 a4bd 0664 1abe c327 05bd 0247 41be
000000a0: e63a 92be 3f43 b03d dbc1 28be 689d b43b
000000b0: a01a 093e 3961 b23d 5a91 2bbd ab3f ddbd
000000c0: d428 063d eaf3 aa3d f18b 51bd 6884 04be
000000d0: 5d7b 793c 07ca ff3c f6aa 293e 663f 2abc
000000e0: ef11 d13d 4e40 003e 3aef d33d d282 763c
000000f0: 4897 9d3d 8915 613e d99c 8f3d a441 d93d
00000100: 6ad9 4bbd b60e 32be 42b3 acbc 5772 7fbd
00000110: fdfa 153c 22a2 0a3d e6d4 583d 826f 03bd
00000120: dc1c 00be 5908 3abb 1a74 e93d 998f c03d
00000130: fe7d 313d c66f 81bd f15b 3d3c ccd4 3c3e
00000140: d258 bd3d eef6 87bd b5c1 cabc 82d9 05bb
00000150: 1de3 8dbd f6f5 02bd fb69 4f3e e391 0fbe
00000160: 5e7c 17bc 068a 1e3d e7e1 ed3d d681 ad3c
00000170: 2a2d b3bc 5a01 833d 8008 743d 0b37 4abd
00000180: e6bf b23d 9ed1 223e 3b1b 9dbd 3876 d4bb
00000190: 0c31 2d3d c72c d43d 77e0 583d 4670 c2bd
000001a0: b1d6 653e fd74 0dbe 648b 0a3d cfd9 8bbb
000001b0: 7b0d cd3d 544a b43d cee8 993c 85d5 98bd
000001c0: 2ac0 aebd 3b85 52be 5036 fc3d ea3f 9cbc
000001d0: cb4e 33be 07d4 6dbb 58c6 c9bc 5722 163e
000001e0: 065b 51bb 8ade 39bd 0f61 0abe 397a 623c
000001f0: d095 8a3d 0203 293e d4dd 08be aee7 3cbd
00000200: 3b34 053b 9a4a 19bd 01c4 9d3d 546d 073d
00000210: e724 31bd 138e 553d 81bc 3bbd 8f6c 413e
00000220: e1eb f7bd e096 45bd 5414 5e3c 6e2b 933c
00000230: a373 8c3e eae4 5abd 3f1f 9e3b 68b1 9bbd
00000240: 1491 8cbd 616e e93d 4cd1 13be 484b 323e
00000250: 0cd9 deba ad12 c13d 639b 3abd 5f61 1fbe
00000260: b03e cebd d441 74bc 96a6 afbd e442 8abd
00000270: a617 45bd 5b4d 7dbd 8917 5e3e 7d7e 113e
00000280: 7cce ccbd c081 14bd 8994 61bd dd0d d83d
00000290: 70ac 343d af3b 313e f606 f9bd e4f1 583c
000002a0: 3a0e 19be b8cd 9bbd a95a adbd cfce 663d
000002b0: e95d d93c 6844 8cbd c129 8e3d ef3f 7abd
000002c0: d6f2 d83d 442e b33c e6e5 803e 9ce2 36bd
000002d0: ab74 02bb 61c4 de3c 4547 c63d a2aa 00be
000002e0: f36a 4ebd 08d4 9d3c af53 43be f51b 633e
000002f0: 2d40 8fbd a593 213e 988e 1a3e 182c 513d
00000300: 4e16 cbbd 999b a7bb 211f 1a3e a18e 25bd
00000310: d351 d6bd 5f2b 3a3e 7259 b1bd b0d2 6cbd
00000320: 6c46 e23c 3ea1 c1bd d81d dcbc ab74 333d
00000330: 7c07 973d caa6 db3d 6db1 0f3e 9cc4 8fbe
00000340: eb62 acbc 6772 393d 1b3e 74be b7df cabd
00000350: 18e6 d63d 33af d03b 158d 02bc 885d 43be
00000360: 6a7a 813e ec55 c43b fef7 703d e5bb 7a3c
00000370: 527f a0bd 150a 093e 430f 21bd 8e93 90bc
00000380: aff3 39bd 7c8c 6e3c 2575 0ebc 0b36 4e3d
00000390: e271 a2bb 0e13 953d aa15 1bbe 34b5 9abb
000003a0: c55a 963d ae27 15be 1de7 0fbe aaa6 60bd
000003b0: c0fe f83b 7cd7 323e d3d6 82bd a6ee 66bd
000003c0: 691b 6bbd f11d f6bc 89e4 8e3d 12cd 3abc
000003d0: 6ed8 323e c2bf 053d 5be4 14be ca34 553e
000003e0: 95d8 6c3d e002 e0bd c7da 64be c18c 8ebd
000003f0: 6d6c 9bbd 2309 e73d 5d89 433e d022 0fbe

fc2.bias f4 [84]
-0.0029034913 -0.0012040149 -0.00031136285 -0.001552361 0.015597147 0.0 -0.01506624 0.019182138
-0.00960141 0.008465903 0.014149228 0.010586139 0.0046858466 -0.0069032256 -0.0022871536 -0.0015154141
0.0037859897 -0.0015159711 0.0029495885 -0.0023801017 -0.0017419704 -0.0023947142 0.010997798 -0.0020103178
0.00031948555 0.00015233833 -0.0151620675 -0.0011414228 -0.010899119 -0.006783983 0.0022550041 0.009248652
-0.00010144565 -0.009719163 0.015490874 0.016916791 -0.003891519 -0.007392983 -0.017121928 0.0006531745
0.0018351352 0.00038204732 -0.0039583985 -0.0045721377 0.032696184 -0.0042648446 0.0052872077 -0.0029486339
-0.0003056049 0.011758242 -0.002291601 0.00255301 0.0 0.0021441465 -0.0152338315 0.0005333734
-0.01332089 -0.0053309896 -0.003321786 0.00013562954 -0.0040313257 -0.0022843175 -0.012554358 -0.0043224115
-0.007861075 0.009261704 -0.0011668033 0.00043399556 -0.0021192217 -0.00263617 0.0010259332 0.0062183477
-0.001458365 0.022973364 0.0011555412 0.00022630097 -0.008229438 0.0016210113 -0.0049227327 0.016149063
-0.0019608724 -0.0019509554 -0.002204715 -0.0015673073
00000000: 8048 3ebb 09d0 9dba 6a3e a3b9 9778 cbba
00000010: 2d8b 7f3c 0000 0000 64d8 76bc dc23 9d3c
00000020: 3b4f 1dbc 92b4 0a3c 2ad2 673c 7c71 2d3c
00000030: bb8b 993b 7434 e2bb 12e4 15bb dca0 c6ba
00000040: 5e1e 783b 8db3 c6ba e24d 413b 7bfb 1bbb
00000050: d452 e4ba a3f0 1cbb 1c30 343c 89bf 03bb
00000060: a080 a739 02bd 1f39 526a 78bc cb9b 95ba
00000070: 3892 32bc 2d4c debb b1c8 133b a887 173c
00000080: 38bf d4b8 203d 1fbc 6fcd 7d3c 1595 8a3c
00000090: db08 7fbb d640 f2bb 4943 8cbc cc39 2b3a
000000a0: eb88 f03a 864d c839 74b5 81bb dfd1 95bb
000000b0: 6fec 053d 1cc0 8bbb 5040 ad3b de3d 41bb
000000c0: 9839 a0b9 a4a5 403c af2e 16bb 6650 273b
000000d0: 0000 0000 cf84 0c3b 5297 79bc 15d2 0b3a
000000e0: dd3f 5abc 95af aebb 52b2 59bb c737 0e39
000000f0: 3619 84bb 7db4 15bb cbb0 4dbc 04a3 8dbb
00000100: bdcb 00bc 67be 173c 6cef 98ba e689 e339
00000110: a4e2 0abb 98c3 2cbb 9b78 863a 48c3 cb3b
00000120: 9c26 bfba a332 bc3c 8775 973a 344b 6d39
00000130: c4d4 06bc 1d78 d43a e04e a1bb 0a4b 843c
00000140: fb81 00bb 33b7 ffba fb7c 10bb 1b6e cdba

fc3.weight f4 [2, 84]
-0.07724436 0.043976404 0.03158259 -0.12657548 -0.12142083 0.093316905 -0.044879258 -0.24497306
-0.116970286 0.06959473 -0.17176852 0.031957448 0.10965196 0.016773883 -0.015294081 -0.049202554
-0.08504373 0.12542783 0.014532228 0.15653954 0.021721032 0.19146721 -0.05630509 -0.08544478
0.08436062 -0.26112676 0.007603505 0.20046876 0.03482551 -0.025198722 -0.22069687 -0.13930753
-0.0011001065 0.20959972 -0.22821355 -0.13933602 0.023336532 0.047388468 -0.019862898 -0.13192062
-0.046538047 -0.0055342005 0.05859534 0.14122494 -0.19472471 -0.13997962 0.031881135 0.102858245
-0.14075442 -0.23452416 0.04527609 0.13663536 0.22762552 -0.18529372 0.14459704 -0.00932578
0.2697776 0.1764612 -0.055888608 0.09310084 0.12431378 -0.08316638 0.13839722 0.11372428
0.12595126 -0.21502168 0.0017812749 0.06056383 -0.14567398 0.00032428198 0.1366788 -0.06455534
-0.007597284 -0.21139479 -0.04022748 0.018213129 0.098107256 -0.0007721979 -0.10711772 -0.21505542
0.012754751 -0.10209633 0.03625374 0.05936235 -0.015530775 0.09929072 0.075124905 0.09469682
0.1835618 0.0073487693 -0.17541048 0.07643256 0.10870686 -0.11030627 0.293134 -0.19462582
-0.118474 -0.11523213 0.09384433 -0.097370625 -0.19087589 0.08170326 0.12358558 0.16425875
0.033289675 0.11536995 0.24041404 0.14222348 -0.018048938 -0.074853435 -0.0145698255 0.020327158
-0.09980428 -0.1326601 -0.030850973 0.1461672 0.019051518 -0.19436538 0.10587748 0.14343107
-0.0002159323 -0.074351415 -0.16865954 -0.043072745 0.290638 0.04523771 0.047594797 0.016143668
0.28505757 0.03437513 0.1790307 -0.056298308 -0.15542951 0.062110312 0.010216537 -0.21485919
-0.07557004 -0.12478996 -0.04361662 0.078443535 -0.04975625 0.045304988 -0.040394016 0.078074634
-0.08657069 0.1874637 -0.013486196 0.0073415767 -0.12915745 0.060547456 -0.019803004 -0.023553569
0.03862153 -0.05542751 0.06572213 0.068893075 0.10135275 0.16659369 -2.5967965e-06 -0.10397403
0.18765728 0.11442126 -0.03648429 0.0011935608 -0.018356025 -0.002409847 0.083328016 0.08777387
00000000: 4b32 9ebd 9a20 343d bf5c 013d 019d 01be
00000010: 7cab f8bd ef1c bf3d 50d3 37bd 38da 7abe
00000020: 1e8e efbd af87 8e3d 16e4 2fbe d0e5 023d
00000030: 3591 e03d 6269 893c 0694 7abc 9e88 49bd
00000040: 682b aebd 2770 003e 9518 6e3c e74b 203e
00000050: 4ef0 b13c fb0f 443e 2ba0 66bd acfd aebd
00000060: 43c5 ac3d 68b2 85be d326 f93b af47 4d3e
00000070: 32a5 0e3d 8d6d cebc 5cfe 61be a2a6 0ebe
00000080: 7331 90ba 4fa1 563e d0b0 69be 1aae 0ebe
00000090: 412c bf3c 691a 423d 84b7 a2bc 3316 07be
000000a0: ae9e 3ebd 3d58 b5bb ab01 703d 459d 103e
000000b0: ea65 47be d156 0fbe cb95 023d 58a7 d23d
000000c0: ed21 10be 1a27 70be 6c73 393d 24ea 0b3e
000000d0: aa16 693e a3bd 3dbe 3f11 143e 28cb 18bc
000000e0: 4a20 8a3e 3fb2 343e 74eb 64bd a7ab be3d
000000f0: 3998 fe3d 2353 aabd 00b8 0d3e 46e8 e83d
00000100: 5ef9 003e a52e 5cbe ab79 e93a c711 783d
00000110: 8f2b 15be 6404 aa39 87f5 0b3e 9735 84bd
00000120: a3f2 f8bb e077 58be 92c5 24bd b333 953c
00000130: 75ec c83d 536d 4aba 8960 dbbd 7d37 5cbe
00000140: 4ef9 503c e117 d1bd cd7e 143d ef25 733d
00000150: cb74 7ebc ef58 cb3d 16db 993d 68f0 c13d
00000160: a0f7 3b3e f2cd f03b ce9e 33be ad88 9c3d
00000170: b4a1 de3d 41e8 e1bd a915 963e fe4b 47be
00000180: 7fa2 f2bd d3fe ebbd 7531 c03d 406a c7bd
00000190: f874 43be 0a54 a73d 701a fd3d 7233 283e
000001a0: c15a 083d 1547 ec3d 192f 763e 08a3 113e
000001b0: 5edb 93bc c24c 99bd 47b6 6ebc 2485 a63c
000001c0: 3066 ccbd 0dd8 07be 2ebb fcbc dbac 153e
000001d0: ee11 9c3c b807 47be 4bd6 d83d 98df 123e
000001e0: e36b 62b9 8e45 98bd 16b5 2cbe 0c6d 30bd
000001f0: 81ce 943e 2d4b 393d c3f2 423d ba3f 843c
00000200: 11f3 913e f0cc 0c3d d353 373e 0e99 66bd
00000210: ea28 1fbe 6267 7e3d 4363 273c 0c04 5cbe
00000220: 77c4 9abd e191 ffbd 57a7 32bd 01a7 a03d
00000230: 36cd 4bbd b991 393d 3274 25bd 98e5 9f3d
00000240: f94b b1bd 7cf6 3f3e 35f5 5cbc 9c91 f03b
00000250: da41 04be 9c00 783d e939 a2bc 6af3 c0bc
00000260: 9c31 1e3d f507 63bd 5399 863d d017 8d3d
00000270: 0892 cf3d 8997 2a3e a044 2eb6 56f0 d4bd
00000280: 3b29 403e b255 ea3d 8d70 15bd 4171 9c3a
00000290: 605f 96bc 86ee 1dbb e1a7 aa3d c9c2 b33d

fc3.bias f4 [2]
-0.023412958 0.02341297
00000000: 88cc bfbc 8fcc bf3c

momentum_buffer f4 [6, 3, 5, 5]
0.029103843 0.03370985 0.03941159 0.05154637 0.042612888 0.03415138 0.033787623 0.03931785
0.040576063 0.02491638 0.042254005 0.039802026 0.04520895 0.04139978 0.02167632 0.03849407
0.040891163 0.042264488 0.03686288 0.016011395 0.028403549 0.038750675 0.04061656 0.028169423
0.013005424 0.026493784 0.03302292 0.038626492 0.050010104 0.041729186 0.030865416 0.03249784
0.03732175 0.037290692 0.023694104 0.040323645 0.0405034 0.04442719 0.039445832 0.02134493
0.037350655 0.041776914 0.04226227 0.035681576 0.015047969 0.027266782 0.03991783 0.0409662
0.028103579 0.013477902 0.013091285 0.019900922 0.025414493 0.035918802 0.028761808 0.017978104
0.01998858 0.024317525 0.024147142 0.011816736 0.028590612 0.0290219 0.03192317 0.026802998
0.01070523 0.025650214 0.029798176 0.02975273 0.023501981 0.0044538816 0.015050717 0.027769642
0.028005274 0.015187105 0.0013141426 0.09975813 0.1011167 0.10426745 0.07380103 0.08326661
0.053318646 0.043804217 0.06986821 0.039150883 0.05015152 0.07322854 0.069684125 0.0898833
0.0656951 0.07440716 0.06712976 0.074031115 0.084282294 0.063557416 0.07350192 0.053934876
0.072080284 0.07554481 0.045032065 0.053289257 0.12475829 0.12450035 0.12365647 0.09238294
0.10245523 0.07251127 0.060897127 0.08710089 0.056059893 0.07015194 0.09307144 0.08834757
0.10883602 0.08663049 0.09773359 0.08930773 0.09608532 0.10575386 0.08598457 0.09818004
0.07946412 0.09714971 0.097632505 0.06851536 0.078741394 0.11187731 0.11028926 0.10543862
0.071857154 0.08505458 0.06202071 0.050160114 0.0731531 0.04124675 0.058156926 0.08307007
0.07819941 0.09655063 0.07486766 0.08713796 0.07818607 0.08590892 0.09266944 0.07399975
0.086987846 0.06459091 0.08229143 0.08067686 0.052509926 0.06227159 -0.04235785 -0.03619323
-0.037018634 -0.051780764 -0.044365097 -0.028195351 -0.015719177 -0.015970096 -0.026618235 -0.013960101
-0.01592104 -0.014323611 -0.008162411 -0.012388533 -0.0021852383 -0.012323871 -0.007012024 0.015054405
0.0018988342 0.012130414 -0.0102136135 0.005454798 0.026112493 0.018573575 0.025064787 -0.03844536
-0.028707445 -0.029642086 -0.04737665 -0.040901184 -0.023881031 -0.009133318 -0.009249161 -0.02260313
-0.010696355 -0.012152469 -0.009020004 -0.0026083204 -0.00866554 0.00058280036 -0.00799692 -0.0013478561
0.021827081 0.006634847 0.01516103 -0.0053017647 0.012193913 0.03391787 0.024307065 0.029871562
-0.03517478 -0.024942134 -0.028845059 -0.04773556 -0.042578287 -0.021377604 -0.0058308104 -0.008898381
-0.023504334 -0.012929318 -0.010596616 -0.0074556973 -0.003677085 -0.0117494 -0.0033192781 -0.0074585853
-0.0011846181 0.019008603 0.0021807798 0.010083716 -0.0062086377 0.010238139 0.029384505 0.01941296
0.024733467 -0.013831213 0.0063579404 -0.0036118082 -0.030684063 -0.03458557 -0.028203696 -0.015415363
-0.025153343 -0.045179654 -0.043868933 -0.011189672 -0.005259885 -0.016405076 -0.03333673 -0.028019633
-0.006365706 0.0011886687 -0.011202154 -0.027474444 -0.02049396 0.0003030647 0.012674765 -0.0029722678
-0.014309529 -0.012235377 -0.01912411 -0.00083966414 -0.012189378 -0.03783136 -0.039270308 -0.0353029
00000000: 2f6b ee3c 5713 0a3d 0c6e 213d 4922 533d
00000010: da8a 2e3d 51e2 0b3d e464 0a3d c10b 213d
00000020: 1633 263d 701d cc3c 8912 2d3d 7307 233d
00000030: 052d 393d d192 293d 8a92 b13c f5ab 1d3d
00000040: 7e7d 273d 871d 2d3d 88fd 163d 542a 833c
00000050: 8fae e83c 07b9 1e3d 8d5d 263d 90c3 e63c
00000060: b414 553c 7e09 d93c 0b43 073d d036 1e3d
00000070: 65d7 4c3d 39ec 2a3d 78d9 fc3c 741c 053d
00000080: b1de 183d 20be 183d 231a c23c 682a 253d
00000090: e5e6 253d 49f9 353d f491 213d 90db ae3c
000000a0: 00fd 183d 451e 2b3d 341b 2d3d d826 123d
000000b0: c28b 763c 965e df3c e180 233d 2dcc 273d
000000c0: 7a39 e63c 6bd2 5c3c d47c 563c 4207 a33c
000000d0: 0e32 d03c 981f 133d e29d eb3c d146 933c
000000e0: 17bf a33c 8c35 c73c 3ad0 c53c fc9a 413c
000000f0: dc36 ea3c 56bf ed3c dfc1 023d f691 db3c
00000100: fd64 2f3c 6620 d23c 4e1b f43c ffbb f33c
00000110: 3a87 c03c def1 913b 4897 763c 297d e33c
00000120: 516b e53c 56d3 783c 4f3f ac3a fe4d cc3d
00000130: 4616 cf3d 2c8a d53d ff24 973d af87 aa3d
00000140: a764 5a3d 0d6c 333d 1017 8f3d ad5c 203d
00000150: ae6b 4d3d d8f8 953d 8db6 8e3d bc14 b83d
00000160: 278b 863d c862 983d 547b 893d a09d 973d
00000170: 329c ac3d 642a 823d 2d88 963d d1ea 5c3d
00000180: d49e 933d 3db7 9a3d 8b73 383d d645 5a3d
00000190: 4681 ff3d 0afa fe3d 9a3f fd3d 4433 bd3d
000001a0: 0cd4 d13d ca80 943d 446f 793d f461 b23d
000001b0: 0f9f 653d d2ab 8f3d 3d9c be3d 92ef b43d
000001c0: 6be5 de3d 546b b13d 8c28 c83d f9e6 b63d
000001d0: 61c8 c43d 7b95 d83d ae18 b03d 9e12 c93d
000001e0: 16be a23d 6df6 c63d 8df3 c73d c851 8c3d
000001f0: 2b43 a13d ee1f e53d 56df e13d 34f0 d73d
00000200: d829 933d 1831 ae3d 6e09 7e3d b174 4d3d
00000210: 4bd1 953d 5af2 283d f535 6e3d a420 aa3d
00000220: 0327 a03d 56bc c53d 3754 993d 6375 b23d
00000230: 0520 a03d 04f1 af3d 7ac9 bd3d 2e8d 973d
00000240: af26 b23d 3d48 843d 6988 a83d e939 a53d
00000250: a614 573d 7f10 7f3d 6d7f 2dbd 5a3f 14bd
00000260: daa0 17bd 1118 54bd 2db8 35bd f0f9 e6bc
00000270: 81c5 80bc b8d3 82bc 7c0e dabc e8b8 64bc
00000280: d76c 82bc 94ad 6abc a2bb 05bc 46f9 4abc
00000290: 3736 0fbb 10ea 49bc 1fc5 e5bb c0a6 763c
000002a0: 4ee2 f83a a5be 463c 0057 27bc 2abe b23b
000002b0: dee9 d53c 9c27 983c ab54 cd3c e278 1dbd
000002c0: e02b ebbc f6d3 f2bc 050e 42bd 0088 27bd
000002d0: 27a2 c3bc eaa3 15bc cb89 17bc 332a b9bc
000002e0: c43f 2fbc 261b 47bc a4c8 13bc 5bf0 2abb
000002f0: e9f9 0dbc 12c7 183a 8305 03bc 8caa b0ba
00000300: b5ce b23c 2169 d93b f865 783c 6dba adbb
00000310: fac8 473c 77ed 0a3d 9c1f c73c 35b5 f43c
00000320: 6e13 10bd 7253 ccbc 794c ecbc 5d86 43bd
00000330: 9266 2ebd 1620 afbc 6210 bfbb 84ca 11bc
00000340: 298c c0bc 7dd5 53bc 6e9d 2dbc ec4e f4bb
00000350: 40fb 70bb 8e80 40bc 3f88 59bb 2667 f4bb
00000360: 3045 9bba eeb7 9b3c 6aeb 0e3b 2c36 253c
00000370: d471 cbbb debd 273c c6b7 f03c ee07 9f3c
00000380: d79d ca3c 509c 62bc 4556 d03b 16b4 6cbb
00000390: 255d fbbc 99a9 0dbd 700b e7bc b890 7cbc
000003a0: 620e cebc 4d0e 39bd e9af 33bd e354 37bc
000003b0: 1d5b acbb f063 86bc 188c 08bd 6e89 e5bc
000003c0: 6a97 d0bb 1acd 9b3a 3d89 37bc 1612 e1bc
000003d0: f3e2 a7bc a8e4 9e39 d1a9 4f3c 61ca 42bb
000003e0: 8472 6abc e476 48bc 2aaa 9cbc e81c 5cba
000003f0: f5b5 47bc 0ef5 1abd e7d9 20bd c699 10bd

momentum_buffer f4 [6]
-0.04949742 -0.057982292 -0.020162778 -0.005761425 -0.002391602 -0.0028477036
00000000: cfbd 4abd d77e 6dbd 692c a5bc 56ca bcbb
00000010: 6cbc 1cbb 8aa0 3abb

momentum_buffer f4 [16, 6, 5, 5]
0.0021581398 0.0027080376 0.0027255442 0.0028540655 0.0011582696 -0.0020530045 0.0006839589 0.0012840066
0.00063861813 0.0009299146 0.0010302212 0.0013507613 0.0021541717 0.0009549054 0.0033966193 0.0013711125
0.0015328611 0.00028567726 0.0003254565 0.0015361096 0.0014643098 0.0026762933 0.0003655953 0.001621479
-0.0002670543 -0.0036532246 -0.0013965362 0.00071856525 0.0012209838 0.0019593574 -0.0026650801 -0.00061950146
0.0007622242 0.0014647378 0.0029370133 -0.001734028 0.0007118007 0.0005604109 0.0008268767 0.00067836617
-0.00015191168 0.0037070527 0.0033343043 0.003338045 0.0019812426 0.0017397554 0.0020709157 0.0019286933
0.0011506873 -3.6832815e-05 0.0021332502 0.0027206622 0.0059948782 0.0056152805 0.0040106424 0.0041102245
0.004409691 0.0047223186 0.0027348632 0.0025528825 -0.0005396487 0.0004363135 -0.0015384599 -0.0004038373
-0.0005594834 0.0017768986 0.003160668 -0.00038418832 0.00054558745 0.00038391622 0.0093327835 0.008549065
0.008134326 0.007623594 0.009206131 0.0032265598 0.0039578835 0.001777821 0.0012668439 0.0015429701
0.0020783292 -0.0021988745 -0.0022590193 -0.0029032384 -0.003016061 0.00077795464 -0.0016122997 -0.0020159325
-0.00089431234 -0.0005037274 0.0013598226 -0.00264289 -0.00075642177 -0.0020352574 -0.0032034595 -0.005357258
-0.0071739648 -0.006087977 -0.006336611 -0.006695817 1.0552714e-05 0.0006178575 0.0013097251 0.00082623743
0.0012072995 0.00058077276 -0.0012511697 -0.00050824805 5.9008653e-05 0.0016692786 -0.00041319657 -0.00063991966
-0.00040206735 0.000886146 -0.00043197867 -1.2005901e-05 -5.8538484e-05 -4.6801266e-05 -0.00090876286 -0.0016606587
-0.0011931893 -0.0018178571 -0.00055018574 -0.0008183212 -0.00072664133 0.010116695 0.005886795 0.0051192096
0.005566362 0.0042654206 0.009811964 0.005964169 0.0031315512 0.0029099353 0.003751562 0.008579229
0.00412433 0.0037672003 0.0033073062 0.0027768097 0.010792223 0.0064928997 0.006059719 0.006298551
0.0049662404 0.0018044342 0.00018429832 -0.00060936826 -0.0009986963 -0.0017487118 0.01333541 0.010402824
0.006552373 0.016942065 0.014229232 0.012383131 0.008463465 0.008714914 0.022013627 0.01950012
0.015980538 0.012123136 0.010663707 0.023718953 0.020411206 0.024439102 0.020675357 0.016588833
0.024000583 0.021122681 0.020465778 0.01434757 0.00937483 0.015565638 0.0103083 0.12109685
0.09652347 0.087841064 0.09171532 0.120071866 0.11605193 0.09495262 0.0870717 0.08691397
0.11227878 0.11758538 0.10887535 0.09589805 0.08406124 0.1017368 0.112459496 0.1058208
0.08728805 0.06739085 0.08041412 0.10378453 0.09812178 0.078136936 0.056756567 0.074471444
0.0108017465 0.013942908 0.018734992 0.026607882 0.031877797 0.036150213 0.039868925 0.041044906
0.037619643 0.041260436 0.030279974 0.031364497 0.02473718 0.023646884 0.02814283 0.022584027
0.016598837 0.007484898 0.007005207 0.013259165 0.040594485 0.03620617 0.02590327 0.027886739
0.029630499 -0.0011854253 0.009360134 0.018232943 0.022238784 0.015460895 0.0009335466 0.006313044
0.0092668785 0.013299782 0.012304729 -0.0015263073 0.0009966331 0.002257384 0.008797752 0.015486403
-0.0007465145 0.0039912756 0.012166608 0.024313584 0.026434015 0.012785109 0.013845495 0.020335088
0.030335598 0.034484398 0.01753998 0.013831748 0.012395046 0.022515701 0.019732779 0.01804277
00000000: 946f 0d3b 5579 313b 0b9f 323b 460b 3b3b
00000010: 14d1 973a b38b 06bb b44b 333a 1d4c a83a
00000020: f068 273a 83c5 733a 7d08 873a 070c b13a
00000030: 012d 0d3b 9e52 7a3a d199 5e3b e7b6 b33a
00000040: 49ea c83a f4c6 9539 08a2 aa39 4957 c93a
00000050: 15ee bf3a c064 2f3b 5fad bf39 cf87 d43a
00000060: 6c03 8cb9 f06a 6fbb fb0b b7ba 195e 3c3a
00000070: 6b09 a03a 9068 003b a0a8 2ebb 0a66 22ba
00000080: 00d0 473a 72fc bf3a e87a 403b 5348 e3ba
00000090: 2398 3a3a 8ae8 123a c2c2 583a 62d4 313a
000000a0: 7b4a 1fb9 06f2 723b 5884 5a3b 1ac3 5a3b
000000b0: bcd7 013b 8108 e43a 33b8 073b 35cc fc3a
000000c0: a9d2 963a ef7c 1ab8 00ce 0b3b 234d 323b
000000d0: af70 c43b 6300 b83b b56b 833b 10af 863b
000000e0: 2b7f 903b aebd 9a3b 643b 333b 434e 273b
000000f0: 3677 0dba 02c1 e439 26a6 c9ba 20ba d3b9
00000100: 4caa 12ba d3e6 e83a 3623 4f3b e26c c9b9
00000110: c105 0f3a 5d48 c939 88e8 183c 6111 0c3c
00000120: d645 053c 57cf f93b 50d5 163c b174 533b
00000130: 22b1 813b c605 e93a 3a0c a63a 7c3d ca3a
00000140: 9434 083b fe1a 10bb 0e0c 14bb 4244 3ebb
00000150: 1ba9 45bb a7ef 4b3a cd53 d3ba bc1d 04bb
00000160: 4970 6aba 930c 04ba 133c b23a 5634 2dbb
00000170: 9b4a 46ba f461 05bb 22f1 51bb f08b afbb
00000180: 9413 ebbb a77d c7bb 59a3 cfbb 9668 dbbb
00000190: 900b 3137 b7f7 213a 15ab ab3a db97 583a
000001a0: 403e 9e3a 003f 183a 4afe a3ba f33b 05ba
000001b0: 0f80 7738 b2cb da3a 4ea2 d8b9 48c0 27ba
000001c0: 91cc d2b9 404c 683a 327b e2b9 f46c 49b7
000001d0: 3887 75b8 7a4c 44b8 0b3a 6eba 76aa d9ba
000001e0: ca64 9cba 2a45 eeba 573a 10ba 9b84 56ba
000001f0: 137c 3eba 7fc0 253c 04e6 c03b 0bbf a73b
00000200: 0766 b63b f1c4 8b3b 5cc2 203c 136f c33b
00000210: b63a 4d3b 9db4 3e3b c4dc 753b e58f 0c3c
00000220: 6325 873b 22e3 763b 64bf 583b 23fb 353b
00000230: ddd1 303c 64c2 d43b 9b90 c63b 1364 ce3b
00000240: d8bb a23b c482 ec3a 3440 4139 03be 1fba
00000250: b0e6 82ba 0835 e5ba c37c 5a3c 9b70 2a3c
00000260: 4ab5 d63b 16ca 8a3c ba21 693c 9ee2 4a3c
00000270: 58aa 0a3c 00c9 0e3c ec55 b43c b7be 9f3c
00000280: 9ee9 823c 1ea0 463c d4b6 2e3c 404e c23c
00000290: 6735 a73c 8334 c83c 5e5f a93c 4ee5 873c
000002a0: df9c c43c 7909 ad3c d9a7 a73c 1212 6b3c
000002b0: e398 193c 0507 7f3c 25e4 283c a001 f83d
000002c0: 19ae c53d 04e6 b33d 3ed5 bb3d 3de8 f53d
000002d0: a2ac ed3d 8576 c23d a652 b23d f4ff b13d
000002e0: 6bf2 e53d 9bd0 f03d 0afa de3d 3266 c43d
000002f0: 4d28 ac3d 625b d03d 2a51 e63d 93b8 d83d
00000300: 14c4 b23d 3704 8a3d 28b0 a43d fc8c d43d
00000310: 12f4 c83d 4206 a03d 9379 683d 7c84 983d
00000320: cff9 303c cb70 643c 207a 993c c6f8 d93c
00000330: 4b92 023d 3f12 143d 994d 233d b41e 283d
00000340: 0e17 1a3d b400 293d b50d f83c 0f78 003d
00000350: a0a5 ca3c 1cb7 c13c cb8b e63c 2302 b93c
00000360: 49fa 873c e043 f53b ef8b e53b f83c 593c
00000370: 6746 263d ec4c 143d 1833 d43c bb72 e43c
00000380: a9bb f23c 4660 9bba 3f5b 193c 415d 953c
00000390: 1c2e b63c b24f 7d3c 40b9 743a a7dd ce3b
000003a0: 1bd4 173c 54e7 593c c699 493c 600e c8ba
000003b0: 75a1 823a 9ef0 133b 7224 103c afba 7d3c
000003c0: bdb1 43ba 3fc9 823b 7456 473c 482d c73c
000003d0: 268c d83c a278 513c 37d8 623c c595 a63c
000003e0: 5c82 f83c 833f 0d3d 01b0 8f3c 8e9e 623c
000003f0: 9714 4b3c d972 b83c a3a6 a13c 6ece 933c

momentum_buffer f4 [16]
-0.0030220102 0.06739622 -0.0023597272 0.03109968 -0.033260215 0.031856768 0.003205146 0.014096431
0.0014037903 0.040258564 -0.016025841 0.021248914 0.0075857043 0.0074476064 -0.022249153 0.00044026197
00000000: eb0c 46bb 0807 8a3d a7a5 1abb c2c4 fe3c
00000010: dd3b 08bd 3e7c 023d 6d0d 523b b8f4 663c
00000020: 63ff b73a 2ae6 243d a048 83bc 3412 ae3c
00000030: 8091 f83b 0d0b f43b db43 b6bc f6d2 e639
